maniacko.tflite (tflite, 145688 bytes, 8 tensors)

model/dense/BiasAdd/ReadVariableOp/resource f4 [128]
000000 1a e1 96 3e 1a 04 6c be 33 ca c9 be 0c 7f 8c bf
       0.29468614 -0.2304844 -0.39412078 -1.0976272
000010 00 2f 00 3f e7 e4 40 bf 7e 42 78 bf 95 ed e5 be
       0.50071716 -0.7534928 -0.9697646 -0.44907823
000020 74 38 72 be 44 c3 95 bf f8 74 75 3f c4 d5 f2 be
       -0.23654348 -1.1700215 0.95881605 -0.47428715
000030 bc d8 d5 3e a4 cf 7d 3f ff a5 1b be 00 00 00 00
       0.41766918 0.9914496 -0.15200041 0.0
000040 04 8b 41 bf 24 73 5b 3f 87 e5 6f 3e 9d 9f d1 3d
       -0.75602746 0.85722566 0.23427401 0.10235522
000050 bc 4f ca be 30 f9 e9 be 22 1a 4c 3f 1a 75 4c 3f
       -0.39513958 -0.45697927 0.79727376 0.7986618
000060 13 3e 78 bd e0 5a 7f be ee 1e 61 3c 91 9d 5a 3e
       -0.060606074 -0.2493701 0.013740284 0.2134917
000070 cf 11 43 bd ed e7 ae be 94 86 6f bf c9 e5 2e 3e
       -0.047624405 -0.3416132 -0.93564725 0.17079844
000080 3f 72 64 bc 97 61 8c be 90 62 ab be 3d 0b 01 bf
       -0.013943254 -0.27418205 -0.33473635 -0.50407773
000090 b0 61 3a 3f c2 fe b1 3d 13 2f 35 bf a0 6a b7 bd
       0.7280531 0.08691169 -0.70774955 -0.08955884
0000a0 02 96 58 bf 44 9e 00 bd 33 d3 33 3f 45 07 b2 3d
       -0.84603894 -0.031400934 0.7024414 0.08692793
0000b0 7d 35 95 bc f1 4b 30 3f 95 d5 ae be 05 52 28 bf
       -0.018213982 0.6886588 -0.34147325 -0.6575015
0000c0 09 57 c3 3e c3 a1 3f bf 51 30 3a 3e 17 a8 f3 bd
       0.3815234 -0.74856204 0.18182494 -0.11897295
0000d0 ba d6 d0 be cc 79 87 bf 58 5c 36 bf 5d 0a 7e be
       -0.40788823 -1.0584044 -0.71234655 -0.24808641
0000e0 5e 6c c0 be 56 07 92 3d ac b3 a2 3e 4e ac d7 be
       -0.37582678 0.071303055 0.31777704 -0.42123646
0000f0 c0 4d 84 be ee ec 09 bf ae 70 03 be 98 a9 9a 3e
       -0.2584057 -0.5387715 -0.12835953 0.30207515
000100 28 49 35 bf 6a 8e 4b bf d8 e2 56 bf fa 81 c4 3e
       -0.7081475 -0.7951418 -0.83939886 0.38380414
000110 4e 01 8c 3e d6 4a 2b bf ca c2 c6 be 4c d0 86 bf
       0.27344745 -0.66911066 -0.38820487 -1.0532317
000120 54 9a 92 bc 17 d6 4c bf 46 9f 17 bf 53 7c 16 3f
       -0.017895855 -0.80014175 -0.59227407 0.58783454
000130 73 3f ca be 2a 80 1a bd 1e 1e 9d bf 06 27 72 3f
       -0.39501533 -0.037719883 -1.2274816 0.94590795
000140 fe fb 96 3d 8e 6f 94 bf 63 54 8c bc 21 45 93 be
       0.073722824 -1.1596544 -0.017130082 -0.2876368
000150 46 33 80 be 79 fc 1c bf 6e 25 84 3d c5 c9 a1 be
       -0.2503912 -0.6132274 0.06452452 -0.3159925
000160 6d cb 43 be c7 d9 5e bf 2c 57 fb 3e 55 53 94 bf
       -0.1912057 -0.8705105 0.49089944 -1.1587931
000170 60 4a 81 be 69 16 99 bf ea 67 00 3e 81 77 fe be
       -0.25252056 -1.1959964 0.1253964 -0.4970055
000180 d8 d5 b9 be 79 9a 95 bf c1 8b 42 3f af ca 7c bf
       -0.36295962 -1.1687766 0.759945 -0.9874677
000190 bb 83 1d bf fb 02 a4 3f 11 5f fb be 51 4a 56 bf
       -0.6152913 1.281341 -0.49095967 -0.8370715
0001a0 d8 de ec 3e 98 52 90 bd 0e 79 44 3f 3d ab 8a be
       0.46263766 -0.070470035 0.76747215 -0.2708377
0001b0 6d c5 b7 3e a0 67 26 3f 90 24 f3 be 45 7d e1 be
       0.3589281 0.6500187 -0.47488832 -0.44040886
0001c0 e2 fc ad 3e 99 8a 8c bd 30 74 9a bf 82 d5 1f be
       0.33981997 -0.06862373 -1.2066708 -0.1560879
0001d0 fe bd de be 09 c6 97 be ef 70 0d 3f 24 ff 33 bf
       -0.43504328 -0.29643276 0.5525045 -0.7031119
0001e0 80 0d a7 bf b0 f0 20 bf b4 02 71 bf c3 7d 79 bf
       -1.3050995 -0.6286726 -0.9414475 -0.9745752
0001f0 b8 58 cf 3e 44 77 8c bf 0e d8 10 3f b6 1b 95 be
       0.40497375 -1.0973897 0.56579673 -0.29122704

model/dense_1/BiasAdd/ReadVariableOp/resource f4 [256]
000000 d3 07 84 3e 38 dc 8f bc b7 67 42 3e ca 46 3a bf
       0.2578722 -0.017561063 0.18984877 -0.72764266
000010 e3 1c e4 b9 fe c0 74 3e 7e 25 1f 3d ba d3 72 bf
       -0.0004350907 0.23901746 0.038854115 -0.9485432
000020 8e ab 75 3e 82 79 8b 3d 46 31 13 be 59 ad ae 3d
       0.23991224 0.06810285 -0.14374265 0.08529157
000030 e3 6e 21 bf 57 4b 86 3e 94 de 5f 3e bc b1 bf bf
       -0.63059825 0.26229355 0.2186225 -1.4976115
000040 58 03 32 be ac 25 ba 3d 02 ac eb be da df 0d bf
       -0.17384088 0.090892166 -0.4602967 -0.55419695
000050 cf cb 97 bf f6 61 1b be e3 10 df 3d f7 14 df 3e
       -1.1859072 -0.15174088 0.10891893 0.43570682
000060 ca 9e 4c 3d 3a 7b 03 be f0 64 84 3e be 1d 91 3e
       0.04995612 -0.12839976 0.2585826 0.28343004
000070 06 3f 4a be a7 ed ef bf 37 86 54 be 43 35 e5 3c
       -0.19750604 -1.8744401 -0.20754324 0.027979499
000080 72 b3 f5 3d 9f 0c 81 bf a2 0b cb 3d f1 01 ae 3e
       0.11997117 -1.0081977 0.09914328 0.33985856
000090 3c 8a 28 bf c4 71 7a bf c3 fe ae be bb 8d 1b bd
       -0.6583593 -0.9782984 -0.34178743 -0.03797696
0000a0 04 65 f9 be 5d 22 21 be 02 69 72 3e bf c7 98 be
       -0.4870988 -0.15735765 0.2367287 -0.29839894
0000b0 3a 5e 01 3f fd 78 61 bc 48 71 de bf 4a b5 23 3f
       0.50534403 -0.013761756 -1.7378321 0.639485
0000c0 9b 6c 7d 3e 6d be 9a bf 85 41 3d 3d d2 85 25 bf
       0.24748461 -1.2089363 0.046205062 -0.6465732
0000d0 73 63 57 bc ad e8 85 bf 1f fa cc be d6 f7 14 c0
       -0.013146269 -1.0461632 -0.40034577 -2.3276267
0000e0 3d ae 6c 3e 63 4e 9a bf 7b d8 0a bf 45 4e c8 be
       0.23113342 -1.2055172 -0.54236573 -0.39122215
0000f0 13 e9 e6 3d 0b 07 55 3e ca 99 80 3e 28 ca 73 3e
       0.11274924 0.20803468 0.25117332 0.23807585
000100 fb 64 60 be 5a 03 89 3d 1f 41 19 bd 4b 8c 52 3e
       -0.21913521 0.066900924 -0.03741562 0.2056133
000110 a8 54 ad 3d 9a 29 e6 be 09 6f 5e 3d 2a b5 7a be
       0.084634125 -0.44953614 0.05430511 -0.24483171
000120 9a 53 ff 3d 27 0e 0a 3e f0 72 bb 3e 7d 17 6d 3e
       0.124671176 0.13481961 0.36611128 0.23153491
000130 8f 22 72 bc 57 ac 5d be a1 51 78 3d 43 7c 04 3c
       -0.014778747 -0.21647774 0.060624722 0.008086267
000140 44 6e 37 3d e1 b2 b4 bf 36 98 cd bf 53 58 07 be
       0.044782892 -1.411709 -1.6062076 -0.13217287
000150 fb 6b ef 3e ef 70 30 3e 9e 8e 3f 3e 1a 68 14 3e
       0.4676207 0.17230581 0.18706748 0.14492837
000160 65 07 93 3e de ae b4 be 60 79 94 bf f6 2d 1a be
       0.2871658 -0.35289663 -1.1599541 -0.15056595
000170 ad bf c5 3c 29 21 ef bd 22 9e e6 bf 1d 89 e2 be
       0.02413925 -0.11676247 -1.8017008 -0.44245234
000180 d7 a5 85 3e 74 b9 98 3e 7c 72 4a bd 10 bc 67 bd
       0.26103088 0.2982899 -0.049425587 -0.056575835
000190 22 b5 ab 3e 36 6f 2f 3f 35 b0 aa 3e 35 24 27 3e
       0.3353663 0.6852907 0.3333756 0.16322406
0001a0 db 25 19 3e 2a 2a 23 bf f0 39 75 3e 5b 1d 48 3e
       0.14955847 -0.6373621 0.23947883 0.19542448
0001b0 cf 43 73 3e 28 c0 4a bf 7d ab be 3e bb bc eb bd
       0.23756336 -0.7919946 0.3724021 -0.11510607
0001c0 64 67 2d 3c cf a2 dc bf 1b b1 27 3e 14 6a 57 bf
       0.010583732 -1.7237185 0.16376154 -0.8414624
0001d0 cf f9 de bf cc 83 b1 bf 9d bc 42 be 30 c3 a0 bf
       -1.7419986 -1.3868346 -0.19017263 -1.2559566
0001e0 ab 25 4d be 2d cb b3 3d 98 4c 76 be df 7f 1c bf
       -0.200339 0.08778987 -0.24052656 -0.61132616
0001f0 a4 e3 bd bf 30 9f 88 bb eb 36 25 be 73 de 06 be
       -1.4835095 -0.0041693673 -0.16134231 -0.13170795
000200 9e cb 51 be c2 25 c8 bf 8e 35 6a bf dc 5c ef 3d
       -0.2048783 -1.5636523 -0.9148797 0.116876334
000210 67 b5 a3 3e c2 f3 25 3d 3d df 66 bf 0d 8b c6 3e
       0.31974337 0.04051567 -0.90184385 0.38777962
000220 84 f9 03 3e c1 90 b7 3e 38 9d 7a 3e 8b 87 db bf
       0.12888151 0.35852626 0.24474037 -1.715074
000230 de 18 a4 be 59 c2 00 bf b6 3a 16 3e ff 49 13 3d
       -0.32050222 -0.5029655 0.14670834 0.03595924
000240 66 05 91 3d a7 fc 4f 3e de 4e ca be 09 49 93 bf
       0.07081108 0.20311223 -0.39513296 -1.1506664
000250 e9 1b d9 3d 36 d0 84 ba 4d af 35 3c bc 54 6a be
       0.106010266 -0.0010132852 0.011089158 -0.22883886
000260 8f f9 94 3e d8 91 08 be 2c ff 12 3f 5e f2 0d bf
       0.29096648 -0.13336885 0.5742061 -0.5544795
000270 75 4f c8 bf 2c cd 51 3e 79 db ee 3d d3 df fb bf
       -1.5649248 0.20488423 0.11662955 -1.9677681
000280 d4 ab 8a 3e 81 7d 12 be fc 3f 2e bf 77 9c 87 bf
       0.2708422 -0.14305688 -0.6806638 -1.0594624
000290 cf 31 ab be 97 d9 98 3e ba 8e 0d bf 2d 20 17 bf
       -0.33436438 0.29853508 -0.5529591 -0.5903347
0002a0 ac ae 81 bf f6 d6 a6 3e 46 0f 46 3d fe 04 77 be
       -1.0131431 0.32585877 0.04835441 -0.24122998
0002b0 46 62 b5 3e a3 c5 06 c0 c6 cb ed bf bb e1 2a bf
       0.3542654 -2.1058128 -1.8577812 -0.6675069
0002c0 b7 3f 77 bd 58 40 2c 3f 02 b5 95 3e 17 ed 03 3e
       -0.060363498 0.6728568 0.2923966 0.12883411
0002d0 3e 7d a1 be 1b 0a 7e be 7a fd 25 bf 50 89 8e be
       -0.31540865 -0.24808542 -0.648399 -0.27839136
0002e0 cc 68 d7 bf cf f1 23 bf 46 98 12 3d 90 a4 b9 3e
       -1.6828856 -0.64040846 0.03578975 0.36258364
0002f0 c4 cf 95 bf f6 06 13 3f ed 91 0b be e7 24 81 3e
       -1.170403 0.57432497 -0.13629885 0.25223467
000300 cc d1 7e 3e 44 01 58 3e bc 3a 10 3f d6 3a a0 3e
       0.24884719 0.21094233 0.5633962 0.31294888
000310 5f d1 3f 3e 6d dc de be 75 6d 99 3e d3 6f 35 bf
       0.18732212 -0.43527547 0.29966322 -0.70873755
000320 93 6f a9 bf 63 b4 ae 3e 88 69 7a 3e 08 4a 1d 3f
       -1.3237175 0.34122 0.2445432 0.6144109
000330 e7 af fd 3d a9 64 b4 bf f1 11 fb be 4c 11 00 bb
       0.12387066 -1.4093219 -0.49037126 -0.001954156
000340 4c 1c aa be b6 ee 65 bf bf 1b 4e bf 53 47 8f be
       -0.33224714 -0.8981737 -0.8051109 -0.27984104
000350 e5 87 8e bf 66 5b 7e bf 0e c4 81 bf d1 4d 6b bc
       -1.1135222 -0.9935821 -1.0137956 -0.014361815
000360 5a f8 7e 3e a1 6a 8c bf d5 31 b4 bf 3c f2 94 bd
       0.24899426 -1.097004 -1.4077708 -0.07272765
000370 d1 4b 39 bf f4 ee a6 3e 22 4c 17 bf 4c 67 e9 bd
       -0.7238131 0.32604182 -0.59100544 -0.113966554
000380 ed 3b be bd e3 15 52 bf d1 79 95 3d 8a 10 54 3d
       -0.09288774 -0.82064646 0.07298625 0.051773585
000390 0c 39 9e bd 96 71 ca bc e9 5e 48 bd ce 36 37 c0
       -0.077257246 -0.024712365 -0.04891864 -2.86272
0003a0 d5 74 07 3d 87 77 b0 bf da 72 11 3c 08 b4 a2 3e
       0.033070404 -1.3786477 0.00887748 0.31777978
0003b0 90 88 a4 bc af e6 c9 bd bc 37 90 bf 87 7c 48 bf
       -0.02008465 -0.098584525 -1.1267009 -0.78315014
0003c0 98 81 bd be ef 02 b7 3e 0d 15 c3 bd 3f 3d 0e c0
       -0.37012935 0.35744426 -0.095254995 -2.2224882
0003d0 df 10 23 bf f2 b4 11 3e d3 d1 be 3e 8e 2e 39 bf
       -0.6369762 0.14229181 0.37269458 -0.7233666
0003e0 df 9a 87 bf 93 b9 64 bf 4f 8f e5 be a3 46 69 bd
       -1.0594138 -0.89345664 -0.44835898 -0.05695213
0003f0 e8 88 9c bf 81 57 c4 3e 9f 55 05 3d 6d dd 27 be
       -1.222928 0.3834801 0.032552358 -0.16393061

model/dense_2/BiasAdd/ReadVariableOp/resource f4 [64]
000000 fb e2 36 bd 00 00 00 00 fe f6 99 3f 07 b4 e5 bd
       -0.04465006 0.0 1.2028501 -0.11215978
000010 00 00 00 00 28 ef 07 bc 00 00 00 00 cf c3 81 40
       0.0 -0.008296765 0.0 4.0551524
000020 2c 4d 03 bf 00 00 00 00 00 00 00 00 f9 02 a1 3f
       -0.5128963 0.0 0.0 1.2579032
000030 00 00 00 00 eb 00 aa bc 4b 46 5e bc 04 75 bf be
       0.0 -0.02075239 -0.013566564 -0.37393963
000040 c0 60 1a 40 59 b6 9e be 43 83 79 bd c8 37 ee 3f
       2.4121552 -0.30998495 -0.060916197 1.8610773
000050 00 00 00 00 de d0 e5 3f 04 e1 ad c0 00 00 00 00
       0.0 1.7954366 -5.4337177 0.0
000060 00 00 00 00 3a c0 bf be 00 00 00 00 9f b8 07 bb
       0.0 -0.37451345 0.0 -0.0020709408
000070 74 23 1c bf f5 32 9a be 7d a6 0b bf 00 00 00 00
       -0.609916 -0.30117002 -0.54550916 0.0
000080 1c c6 d5 bd a4 25 03 be 00 00 00 00 00 00 00 00
       -0.10438177 -0.12807328 0.0 0.0
000090 00 00 00 00 86 eb 07 40 00 00 00 00 ff 80 46 40
       0.0 2.1237502 0.0 3.1016233
0000a0 75 7d 90 40 15 ff 43 b9 00 00 00 00 f6 a0 67 bf
       4.5153146 -0.00018691675 0.0 -0.9047998
0000b0 6c 68 96 be 00 00 00 00 a7 2f 16 40 8d 8d 06 40
       -0.29376543 0.0 2.3466585 2.1023896
0000c0 d0 57 4b 3f 00 00 00 00 2a f6 f3 bd df f7 1b be
       0.79430866 0.0 -0.119121864 -0.15231274
0000d0 00 00 00 00 65 ce 21 bf 74 59 3a bc 00 00 00 00
       0.0 -0.6320556 -0.011373866 0.0
0000e0 00 00 00 00 bb ad 4e bc 00 00 00 00 80 91 a1 bf
       0.0 -0.012614663 0.0 -1.2622528
0000f0 7c b3 a7 3f b5 12 a7 be 00 00 00 00 e8 75 1a bf
       1.3101649 -0.3263146 0.0 -0.6033616

model/keys/BiasAdd/ReadVariableOp/resource f4 [4]
000000 a5 20 8d be 09 55 13 c0 74 61 44 c0 68 2d 82 40
       -0.27563968 -2.3020651 -3.068448 4.0680428

model/dense/MatMul f4 [128, 10]
000000 7e f3 91 be b5 60 6d bd 60 ed 9b bf a4 40 c7 3f
       -0.28506082 -0.057953555 -1.2181816 1.5566602
000010 d6 75 f9 3e 89 dc 4d bf 84 f9 bb be f9 83 49 3e
       0.48722714 -0.80414635 -0.36713803 0.1967925
000020 fb e0 90 3c 85 a6 8f bf fd ed 84 bf ad 3b 18 bf
       0.017685404 -1.1222693 -1.0385128 -0.5946606
000030 4a 09 bc 3e cc 18 9a 3f 65 86 62 3f 94 aa 2e bf
       0.36725837 1.2038817 0.8848632 -0.6822903
000040 ba e0 34 be 72 01 a9 bd 18 2c 5a be cf 12 ad bf
       -0.17663851 -0.08252229 -0.21305883 -1.3521365
000050 e2 67 5c be b4 b0 43 bf 9b 1c 84 3f 08 48 72 3f
       -0.21524003 -0.764415 1.032123 0.9464116
000060 73 63 e0 3e e2 1b 7a bf 41 b9 52 be d8 eb 0e 3e
       0.43825874 -0.97698796 -0.20578481 0.13957155
000070 33 63 49 bf 6c 88 c9 3e f8 32 89 3f a9 25 de 3d
       -0.7866699 0.39361894 1.071868 0.10847027
000080 64 1f 86 3d 01 f6 01 be e7 0c 0b bf f7 21 49 be
       0.06548956 -0.126915 -0.5431656 -0.19641863
000090 56 31 a6 3d 9b 8d 10 3e ce 30 b0 3f a3 bd 8b 3f
       0.08114879 0.14116518 1.3764894 1.0917248
0000a0 4c 30 83 3f 33 dd 6a bf 8c 99 7c bf e4 21 b0 3e
       1.0249114 -0.91743773 -0.98671794 0.34400856
0000b0 ce 42 68 3e 36 70 67 bc d9 f4 96 bd 9f fc 68 bf
       0.22681734 -0.014125874 -0.0737092 -0.9101047
0000c0 dd 40 64 be 80 11 44 c0 93 63 d8 3e 19 09 b1 bf
       -0.22290368 -3.063568 0.4226347 -1.3830901
0000d0 a3 4f 04 3d 7b a6 7b 3f 49 99 99 3f f6 d2 16 bf
       0.03230251 0.98300904 1.1999904 -0.5891565
0000e0 0d f8 9d bd 24 a4 a7 bc 5c f9 09 3e 98 83 b4 be
       -0.077133276 -0.02046401 0.1347403 -0.35256648
0000f0 86 0f 08 3f 16 a5 2a 3f 07 92 38 bd ec 6f 16 bf
       0.53148687 0.6665815 -0.045061138 -0.5876453
000100 7d 9c 00 bf 29 53 04 3f be 2c 95 3f 18 22 78 be
       -0.5023878 0.5168939 1.1654279 -0.24231756
000110 a3 d4 3a 3e aa dc 67 bf f3 7d c7 3f cf ee 99 3f
       0.18245177 -0.9057108 1.5585312 1.2026004
000120 51 f6 fc be d0 9e 94 be f8 1d 72 be 1e c4 e1 bd
       -0.49406675 -0.29027414 -0.23644245 -0.110237345
000130 b4 60 00 bf 2e d5 99 bf 28 49 a2 3f 5d c2 42 bd
       -0.5014756 -1.2018182 1.2678576 -0.04754864
000140 64 03 34 bf b5 11 71 bf 64 22 e4 3d a2 f3 d3 be
       -0.70317674 -0.94167644 0.11139372 -0.41396815
000150 15 75 9e 3d d7 f5 4a 3f ed 8e 90 3f 6b 83 94 3e
       0.077371754 0.7928137 1.1293617 0.29006514
000160 7a 3e 90 bf 21 ed 61 bf c3 e5 cf bc 8f db b8 3f
       -1.1269066 -0.88252455 -0.025378114 1.4442004
000170 9e 28 89 3f 2a 77 d4 be e6 a3 26 3c 45 9a 3a bf
       1.071552 -0.41497165 0.010170912 -0.72891647
000180 ab be d4 3e 59 86 21 3e d9 ac 30 bf 5f 9a 3a 3d
       0.41551718 0.15773906 -0.69013745 0.045557376
000190 35 ad 2a 3e 0f 95 cc 3e 33 dd 7b bf 71 15 29 3f
       0.16667636 0.39957473 -0.983844 0.6604834
0001a0 d0 ce 69 bf 9f a8 06 bf 6f 3e c7 3e a1 85 10 be
       -0.91331196 -0.52601045 0.3891482 -0.14113475
0001b0 73 cf a3 3e 4c b2 a0 bf e4 9b 07 3e af a2 85 3e
       0.3199421 -1.2554412 0.13243061 0.2610068
0001c0 49 6e ec bf 09 21 3a 3f 6c a9 77 3f a5 13 78 3e
       -1.8471156 0.7270666 0.9674289 0.24226244
0001d0 3d c2 81 be a5 86 9d 3d 42 39 08 3e af 8e fc be
       -0.25343505 0.07691697 0.13303092 -0.4932761
0001e0 4a 68 e9 bd e6 bb fa 3e f4 c6 8f 3f 90 49 cc be
       -0.11396845 0.4897148 1.1232591 -0.39899874
0001f0 8d f5 87 bf 46 64 dc be 66 14 b2 bc 2c f5 47 bc
       -1.0621811 -0.43045253 -0.021738242 -0.01220445
000200 50 60 5e 3e 9a 64 9f be 70 f4 66 be 0f 52 4a 3f
       0.21716428 -0.3113144 -0.22554183 0.7903146
000210 c1 ff 68 bf 59 ad 3a 3e b9 b3 00 be d4 17 7f bf
       -0.9101525 0.1823019 -0.12568559 -0.99645734
000220 bf e3 48 3e f8 29 66 bd 83 2c a4 bd 00 ab e0 bf
       0.19618128 -0.05619237 -0.080163024 -1.7552185
000230 54 6a 4e be 2d 9f d1 3e 0e 72 3d 3f 92 f3 b7 bf
       -0.20157748 0.40941754 0.7400216 -1.4371207
000240 f5 28 e0 3e 4d 38 10 3f dd ae 65 be 13 38 a1 3e
       0.43781248 0.5633591 -0.22429986 0.31488094
000250 73 b7 9a be 06 e3 6c c1 b2 43 86 bd c1 8a 1a be
       -0.30218086 -14.805426 -0.065558806 -0.15091993
000260 50 92 51 3c ff 52 02 be 07 bb 22 be eb c8 d8 bd
       0.012791231 -0.12726973 -0.15891658 -0.10585197
000270 2d 95 06 3e da 9e 37 be 3d 19 c0 bd d5 b0 1d be
       0.13142844 -0.17931691 -0.09379814 -0.15399487
000280 2a 27 13 be 1a bd b0 3e 3a 08 a6 bf 43 f8 87 3f
       -0.14370409 0.34519273 -1.297126 1.0622638
000290 b4 3b 8c 3f 20 36 01 be d1 f2 a2 be a8 c5 1a bc
       1.095572 -0.12618303 -0.3182588 -0.009446539
0002a0 9f 53 3b 3e 28 52 a4 be 8c 07 3f c0 12 ca 16 bf
       0.18293618 -0.3209393 -2.9848356 -0.58902085
0002b0 71 04 c2 bf 78 93 9e 3e 56 ea ae 3e b8 9b d6 be
       -1.5157605 0.30971885 0.3416316 -0.4191568
0002c0 df 53 8c 3e 4c d0 d2 3e 76 ce cd be 85 dc e0 bf
       0.2740774 0.41174543 -0.4019658 -1.7567297
0002d0 31 2f 6c bf 02 03 38 bf a5 8e 43 3f 6a d8 9e 3f
       -0.9225951 -0.7187959 0.76389533 1.2409794
0002e0 5f d0 08 3d fd 8a 6a bf a7 4a 31 bf 66 83 8c be
       0.033401843 -0.9161833 -0.69254535 -0.27444
0002f0 9f c9 43 be a9 b7 18 3f 4b b5 11 bf cb f8 3c 3d
       -0.19119881 0.59655243 -0.56917256 0.046135705
000300 56 9a f7 3e 9b d4 96 be a5 cc 4a be 56 b5 16 3e
       0.48359936 -0.2945908 -0.19804628 0.14717612
000310 17 a2 7b 3f 24 b2 6b bd ae 16 66 c0 09 dc b2 3f
       0.98294204 -0.057542935 -3.5951343 1.3973399
000320 a4 e7 d5 be 9b 35 8b be 3e 4b 0e be f7 88 8c 3c
       -0.4177829 -0.27189335 -0.1389589 0.017155154
000330 22 ff 0f bf c6 a6 96 3e 57 57 d8 3f b3 fb 80 3e
       -0.56248677 0.29424113 1.6901654 0.2519203
000340 50 2a 9a bf a2 6c 63 be f0 54 43 bd 71 fa 9e be
       -1.2044163 -0.22209409 -0.047688425 -0.31050447
000350 30 05 bc 3e ba dc b6 be d9 06 36 3e 83 02 a1 bd
       0.36722708 -0.35715276 0.1777605 -0.07861807
000360 99 60 53 3d 47 b8 bf 3f 14 72 f3 3e 76 86 2a c0
       0.051605795 1.4978112 0.47547972 -2.6644568
000370 bc f6 d4 3e 7d 6b 70 bf 78 58 8e bf 9c 13 5b 3f
       0.41594493 -0.93914014 -1.1120749 0.85576797
000380 5d 93 a7 bd 8e f3 b6 be 6b 6a bc be 05 e5 33 bf
       -0.08182404 -0.35732692 -0.3679994 -0.7027133
000390 3e 75 b0 3a 58 08 87 c0 b0 63 d1 bf 97 86 c3 bf
       0.0013462675 -4.2197685 -1.6358547 -1.5275449
0003a0 dc 54 b7 3e da d0 88 3f 0f 17 43 3e 97 86 3b be
       0.3580693 1.0688736 0.19051765 -0.1831306
0003b0 71 e4 f3 be b9 4f a1 bf 89 b6 0d 3e 35 c8 1f c0
       -0.47635224 -1.2602454 0.13839163 -2.4965947
0003c0 4c 62 92 be e6 82 09 3d 9b ce 8a bd 61 7b 90 bd
       -0.2859062 0.0335721 -0.06777688 -0.07054783
0003d0 4e b7 09 3d f1 f1 ec 3d 80 3f 01 be de 37 03 3c
       0.03362208 0.11569584 -0.1262188 0.008008925
0003e0 2b 68 58 bd dc 10 8b 3d 85 15 a3 3d 96 44 39 be
       -0.052833717 0.06790325 0.07963089 -0.1809257
0003f0 73 23 b3 bf 35 ce 5b 3e ea 70 09 bd 9b 29 78 3f
       -1.3995193 0.2146538 -0.03355495 0.96938485

model/dense_1/MatMul f4 [256, 128]
000000 e3 fe 2c 3d 3d 3d 5a 3d 95 e5 17 bc 48 63 5b 3e
       0.042235266 0.053281058 -0.009271045 0.21424592
000010 a5 ef e7 be 32 76 af be 5f 28 57 3f 4d f2 a6 3e
       -0.45300022 -0.34269863 0.84045976 0.32606736
000020 6f 4c 37 c0 d0 52 48 bd 58 de f7 3e 4e 93 8b be
       -2.8640401 -0.0489071 0.48411822 -0.27260822
000030 bc 73 0c 3e f8 82 6c 3e a6 d2 bd 3e 00 7c c0 b9
       0.13716024 0.23096836 0.37074775 -0.0003671348
000040 35 91 25 bf ce ae 21 bf 97 74 27 3f 7a 03 4c bf
       -0.64674693 -0.63157356 0.65412277 -0.79692805
000050 25 b4 a3 bf 70 e0 6f 3f 09 6d f6 be 5c ba 91 bf
       -1.2789351 0.9370184 -0.48130062 -1.1384997
000060 22 80 f7 3d 02 1d dd bf 01 99 f1 bf 3c 38 3f c0
       0.12084986 -1.7274477 -1.8874818 -2.9878073
000070 c6 d1 0f 3e c9 e2 18 c0 24 e9 08 3e 14 9e f2 bd
       0.14044866 -2.3888419 0.13370186 -0.11846557
000080 c5 d2 3f bf 6e 75 51 3f 99 de 69 3f 77 46 cd 3d
       -0.74930984 0.8181981 0.9135528 0.10023206
000090 e7 ef 0a c0 a8 b8 df 3f 2a 03 2e bf 78 06 69 bf
       -2.1708925 1.7478228 -0.6797358 -0.91025496
0000a0 51 37 d0 3f 90 14 98 bb ea 78 54 bf c3 96 cd bf
       1.6266881 -0.004641123 -0.82997 -1.6061634
0000b0 1f ed b7 3e 44 f6 4e 3e b5 c0 52 bf 9d 39 ae bf
       0.35923097 0.2021113 -0.823253 -1.3611332
0000c0 09 8d f8 3d 9c 5a 80 3e c7 13 81 bf 4c b2 8b 3e
       0.12136275 0.2506913 -1.008416 0.27284467
0000d0 ca e5 84 c0 52 c6 ef bd 0e 36 ae be 35 d0 05 bf
       -4.1530504 -0.117077485 -0.34025615 -0.52270824
0000e0 16 a3 c7 3f f8 e3 1a 3f e8 2a b2 be e8 ad 42 be
       1.5596645 0.605041 -0.3479836 -0.19011652
0000f0 9c c4 97 bf 72 a0 79 bd 5f 72 27 bf 30 c7 b8 bf
       -1.1856875 -0.06094403 -0.6540889 -1.4435787
000100 48 a4 bf bd 65 8e 7d bb 35 8a 3b 3c 29 6a 58 bf
       -0.09357506 -0.003868961 0.011446525 -0.8453699
000110 00 46 f5 be 1f 94 b1 3f 91 96 eb bf 50 07 80 3e
       -0.47904968 1.3873328 -1.8405324 0.2500558
000120 0f 31 99 3d fb e5 91 be eb b3 34 bf a7 9b be bf
       0.0748006 -0.28495774 -0.70587033 -1.4891251
000130 6a 1c 9d be e5 f2 23 3f de e2 54 3d ae 3a df 3f
       -0.3068574 0.640425 0.05197417 1.7439783
000140 d2 d7 f5 bf b4 aa b3 3d 1c 6d ac bd a7 09 ac bf
       -1.9206488 0.087727934 -0.084192485 -1.3440446
000150 a2 dd 1d 3d 94 cd 69 be fd c6 ee 3f 81 84 4e bf
       0.038541444 -0.22832328 1.8654476 -0.80670935
000160 0e 2a 8f 3e 85 b9 e9 3c af ed 83 3e d2 3b 95 3e
       0.27961773 0.028530845 0.25767276 0.29147202
000170 4f ef 3f c0 3b 4a 6d 3e 84 2d 12 c0 0e b9 18 bf
       -2.9989812 0.23172848 -2.284028 -0.5965737
000180 ac ed 65 3f 6d 79 05 3f c4 15 00 c0 86 4c 26 3f
       0.89815784 0.52138406 -2.0013285 0.64960515
000190 3b 79 93 3d 2b e7 2a c0 6f cd 27 c0 d5 8f 8e be
       0.07200857 -2.6703594 -2.6219137 -0.2784411
0001a0 07 aa ac 3f 4a a5 e2 bd 7a ec 5b 3f df cd 47 3f
       1.3489388 -0.11066683 0.8590771 0.7804851
0001b0 c5 cd 92 3e 13 e3 a2 bf 6c 93 32 bf 5e 5c 67 be
       0.28672615 -1.2725548 -0.697562 -0.22593829
0001c0 2a 27 d5 bf d1 d4 40 3e eb c3 9a 3e 41 9d 3d 3d
       -1.6652577 0.18831183 0.302276 0.046292547
0001d0 5f 9a 97 be 73 a1 54 3f f9 15 24 c0 79 18 a7 be
       -0.29609963 0.8305885 -2.563841 -0.3263586
0001e0 90 0b 96 ba 1a cf 58 bf 9b 87 90 3e 8b af d9 3e
       -0.0011447538 -0.8469101 0.2822846 0.4251674
0001f0 34 d3 3f be fa 6c 72 3e 83 8f b5 bf 50 b6 07 be
       -0.18732911 0.23674384 -1.4184421 -0.1325314
000200 bb 07 69 3e c9 06 96 be 4e a3 9e 3e 31 1b b9 be
       0.22756855 -0.29302052 0.30983967 -0.36153558
000210 26 87 f6 bf da c2 7e bf 27 ea dc 3c a8 8f 92 3e
       -1.9259994 -0.9951607 0.026967121 0.28625226
000220 a6 ac 23 3d 76 b0 1a bf ce 7d e1 3c bc 8c b2 bf
       0.039959572 -0.6042551 0.027525809 -1.3949199
000230 13 95 10 3f 04 e4 6d 3f 6f b7 4f 3e 04 ed 8a bd
       0.5647747 0.9292605 0.20284818 -0.067834884
000240 2c b2 a0 bf 0e 4a 96 bf 6a dc 0d bf 0a 8c 32 c0
       -1.2554374 -1.174135 -0.5541445 -2.7897973
000250 1b d3 0f 3e c1 70 ae be 0e f1 10 c0 f8 ff cd bf
       0.14045374 -0.340704 -2.2647128 -1.609374
000260 6c ad 49 bc 24 a8 ba bf 49 22 83 3c f4 73 f1 3c
       -0.012309413 -1.4582562 0.01600756 0.029474236
000270 5a c9 06 be d1 14 c3 3d 38 ea bf bf c8 59 4f bd
       -0.13162747 0.09525455 -1.4993353 -0.05062273
000280 7b b8 33 bf 21 23 9f 3e e3 5e 22 3f 1d c4 27 3e
       -0.7020337 0.3108149 0.63426036 0.16383405
000290 2e 81 d7 bf 7b af 18 c0 b0 5e 18 c0 62 07 10 3e
       -1.6836298 -2.3857105 -2.3807793 0.14065316
0002a0 b0 8f 37 3e 47 db 1b 3d 4f 61 17 3f f8 d6 07 be
       0.17925906 0.038050916 0.59132856 -0.13265598
0002b0 79 a6 48 be b4 5f c2 3f 0d 73 43 3d b7 aa 52 bf
       -0.19594754 1.5185456 0.047717143 -0.8229174
0002c0 44 3d 16 3f 0a ef 5b 3e ad a4 0a c0 a4 aa c4 be
       0.58687234 0.21477905 -2.166301 -0.38411438
0002d0 2b 7a 28 bf 05 2a 51 bd 24 e1 4e 3e f8 77 55 bf
       -0.65811414 -0.051065464 0.20203072 -0.8338618
0002e0 40 25 54 bf ff cd 3b 3e 68 f1 94 bf ad 02 65 3c
       -0.8286934 0.183403 -1.1636171 0.013977689
0002f0 b9 91 c5 bf 4f 7e bc bc 97 35 ac bf f4 21 21 c0
       -1.5435096 -0.023009447 -1.3453854 -2.5176973
000300 ec 92 c4 3b 6e 6b 12 bf 71 24 fa bd bc 34 fd bd
       0.0059989598 -0.57195175 -0.12213982 -0.12363574
000310 10 a7 1b 3e 46 c5 6a 3f 9b d8 23 be 8b ae 5e 3f
       0.15200448 0.91707265 -0.16000597 0.8698508
000320 c3 67 22 3c 9a f0 db be 9e e9 ee 3e 84 80 c8 bc
       0.009912434 -0.42957002 0.4666261 -0.024475344
000330 59 af 8c 3e d9 b7 d8 be 98 e9 8e bd aa 93 9c be
       0.2747753 -0.42327765 -0.06978148 -0.3058141
000340 78 53 a7 be c7 12 54 be 8c 78 dc 3d 90 5d f2 3d
       -0.3268087 -0.20710288 0.1076518 0.11834252
000350 6d 25 fc 3e ec c6 65 3e 42 3c 3b bf 75 64 0d ba
       0.49247304 0.22439164 -0.7313882 -0.00053936924
000360 6b 6c dc bf 70 71 17 3e 38 eb 0a 40 fc 1a 6b be
       -1.7220587 0.14789367 2.1706066 -0.22959512
000370 c6 71 ba 3d 6c 9e 85 3d 71 a4 7f be 93 74 6d bf
       0.09103732 0.06524357 -0.24965073 -0.92756003
000380 64 48 26 c0 43 f4 5f c0 78 9d 67 bf cc 8a c5 bc
       -2.5981684 -3.4992836 -0.90474653 -0.024114035
000390 94 cc c2 3d da 6c 6f be ee 01 74 bf 78 4c 11 c0
       0.095116764 -0.23381367 -0.95315444 -2.2702923
0003a0 00 45 84 3f c5 31 8c bc 62 1f 51 3f d2 d1 3b be
       1.0333557 -0.017113576 0.8168851 -0.18341759
0003b0 43 23 43 3f 46 af f7 bf f1 63 fe 3e 39 42 51 3f
       0.7622568 -1.9350364 0.49685624 0.8174167
0003c0 22 a8 0d 3e dc 97 02 c0 dd 08 b0 be 3a c7 cc 3e
       0.13833669 -2.0405188 -0.34381762 0.39995748
0003d0 38 7f c4 3e c1 ef cf be e0 47 fc 3d 22 e9 5a c0
       0.3837831 -0.40612605 0.123183966 -3.4204793
0003e0 07 44 ec bf 9a 02 a2 3e 4c 2d af be 47 f6 00 c0
       -1.845826 0.3164261 -0.34214246 -2.0150316
0003f0 a4 8a ed 3e 79 d3 b6 be ab 52 87 bc 66 01 6a be
       0.46394837 -0.35708216 -0.016518911 -0.22852096

model/dense_2/MatMul f4 [64, 1]
000000 f9 88 a5 b6 00 d1 5f bd c4 7c ce bd f8 87 a8 bb
       -4.933329e-06 -0.054642677 -0.10082391 -0.005143162
000010 e8 31 20 be c6 b4 d2 ba 12 1f 8e be bd 0c a7 be
       -0.15644038 -0.0016075603 -0.2775808 -0.32626906
000020 e6 3c e3 3a a8 35 4e bd 39 b3 98 be 8a 37 e0 bd
       0.0017336875 -0.05034414 -0.29824236 -0.10948093
000030 40 30 7e be 8b fe 96 ba e0 a4 48 bb 00 0b 66 3a
       -0.24823093 -0.0011519952 -0.0030615851 0.0008775443
000040 09 ea 43 be 25 e2 ec b7 b1 dc 62 b9 f1 54 4d bd
       -0.19132246 -2.8238699e-05 -0.00021635254 -0.050129835
000050 cc 1b 91 bd 66 7b a5 bf ce a4 11 3e da a3 0c be
       -0.0708538 -1.2928283 0.14223024 -0.1373438
000060 a0 2b f1 bd 3a 7d 1b 3a 59 4e 90 be 6d 61 76 b9
       -0.11775899 0.0005931441 -0.28184775 -0.00023496682
000070 0a 52 05 3b 0c a7 6b b9 c5 78 da 3a 82 72 e9 bd
       0.0020343089 -0.00022473576 0.0016668072 -0.11398794
000080 78 00 3e b9 97 6d 17 bb 98 90 a6 bd 71 15 7c be
       -0.00018119987 -0.0023106092 -0.08133048 -0.24617554
000090 b2 34 6b be db 37 4e bd ee ff 50 be 7a 5a 8b bd
       -0.2296932 -0.050346237 -0.2041013 -0.068043664
0000a0 22 cc b5 bd 59 0f c7 bb a6 a0 d5 bd c4 07 a5 3a
       -0.08876826 -0.0060748276 -0.10431032 0.0012590815
0000b0 48 32 21 39 98 64 ff bd 5a 46 82 be ce fc 54 bd
       0.00015372888 -0.124703586 -0.254443 -0.051998906
0000c0 73 24 35 bf f6 71 a8 bd d8 16 2d b9 94 85 c5 ba
       -0.7075874 -0.08224861 -0.00016507076 -0.0015069717
0000d0 70 0f fe bd 92 26 d7 3a 5e f2 ed bb 60 d0 0f bd
       -0.12405288 0.0016414693 -0.0072615584 -0.03511083
0000e0 ac d3 89 be 18 cb e2 bb 58 f3 14 be 6e eb 70 3b
       -0.26919305 -0.0069211833 -0.14545953 0.003676142
0000f0 5a 4a 50 bd 18 26 9a ba fc f7 80 be 93 dd d1 3a
       -0.050852157 -0.001176062 -0.25189197 0.0016011469

model/keys/MatMul f4 [4, 320]
000000 e8 c9 7a 3b 80 8d ff 3b c6 37 c1 be 0e 46 2d 3b
       0.0038267318 0.0077988505 -0.37737864 0.002643946
000010 08 a8 39 3d 25 94 a9 3d 98 13 63 3d 57 a7 d3 bf
       0.045326263 0.082802095 0.055438608 -1.6535443
000020 2b 98 98 ba 08 6b aa 3d c8 cd e4 3d fd 93 d5 be
       -0.0011642029 0.08321196 0.11172062 -0.4171447
000030 4c 17 ca 3d 04 10 d9 3c 42 a0 a0 3d ed 8d 96 bc
       0.09867725 0.026496895 0.07843067 -0.018378222
000040 a7 46 16 be ee 4e 90 3c 6b 01 87 bb d7 c4 b3 bf
       -0.14675389 0.017615762 -0.004120042 -1.4044446
000050 3d ff e5 bd e5 6a a6 bd 04 41 0f 3d 5c 30 ec 3d
       -0.112303235 -0.08125857 0.034974113 0.11532661
000060 32 da a8 bd ef 39 fd bc 87 e2 bc bd a2 2e ad 3a
       -0.082447425 -0.030911414 -0.09222894 0.001321275
000070 ce 57 e5 b8 1c e2 19 3c 39 d6 97 bb b0 60 64 bc
       -0.00010935926 0.009392288 -0.0046336916 -0.013939068
000080 28 26 c2 3c 0b 92 03 3b 74 6e bd bd 90 82 05 3c
       0.023699835 0.0020076062 -0.09249583 0.008148804
000090 b8 48 ab bc 6f 12 06 c0 1e 74 ad 3d c4 22 88 c0
       -0.020908698 -2.094875 0.08469413 -4.254244
0000a0 af 3f 0a c0 3c 84 19 3c 98 c4 f7 3d c2 63 1f 3c
       -2.160137 0.009369906 0.12098044 0.009728374
0000b0 2a 6a 18 3c 80 5f 34 3c 2b fa aa bd 78 c5 b3 bf
       0.009302655 0.011009097 -0.08348497 -1.4044638
0000c0 3d 79 65 bd 4a d2 01 3e 29 07 12 3d ee 8a 28 bc
       -0.056023825 0.12677875 0.03565136 -0.01028703
0000d0 02 ab da 3d 70 8b 62 bc 68 5e 06 3d 40 23 f4 3b
       0.106771484 -0.01382719 0.032804877 0.007450491
0000e0 30 1e bc 3c 82 2e 88 3b 50 48 09 3e 16 21 ae bb
       0.022963613 0.004155935 0.13406491 -0.0053140027
0000f0 99 4a 0e bf b6 bf ec 3c 20 af c6 3c 9d 63 11 bc
       -0.55582577 0.028900009 0.024253428 -0.008873847
000100 4d e4 0c bf 21 12 60 bf 8d 2c 8b be e7 8e cd 3f
       -0.5503586 -0.8752766 -0.27182427 1.6059235
000110 81 20 28 c0 8f 86 8c 3f 2e 84 de 3f de 53 9a 3e
       -2.626984 1.0978564 1.7384088 0.3014211
000120 64 3d 3c bf 8b b2 b5 bf 6a 79 bb bd 27 f8 41 be
       -0.73531175 -1.4195112 -0.09154017 -0.18942319
000130 5e 54 ce 3e e0 75 63 bf c1 29 ec bf ce 7b dd 3c
       0.40298742 -0.8885174 -1.8450242 0.027036574
000140 4a 06 35 be 97 fb 03 c0 a0 2c 27 be 42 da 5e 3f
       -0.1767818 -2.0622308 -0.16325617 0.87051785
000150 75 f3 11 40 6c 8c b1 be 98 3e f7 3d fd 21 6a bc
       2.2804844 -0.34677446 0.12072486 -0.01429033
000160 da 54 06 bf e3 d2 1b 3d 20 23 d5 bd 96 3f e6 be
       -0.52473223 0.038042914 -0.1040709 -0.44970387
000170 c4 fd 7d bf 11 12 ff bf ee fb e7 3e 2e 23 98 bf
       -0.9921534 -1.9927388 0.45309395 -1.1885736
000180 f4 5e 7f bf 72 60 19 40 53 5c 34 40 06 69 de 3c
       -0.9975426 2.3965116 2.818135 0.027149688
000190 eb d7 88 3f 80 bb 22 bf a3 e5 3c 3f 0c e4 d2 3f
       1.0690893 -0.6356735 0.737879 1.6475844
0001a0 be c6 14 be 9f 48 f6 bb e3 7d 3b bf 11 d0 4d bf
       -0.14528939 -0.0075159813 -0.7323896 -0.8039561
0001b0 a4 67 dd bd 0a 72 a2 bf cb 76 f1 3e aa b4 b1 3d
       -0.108107835 -1.2691052 0.47160944 0.08677037
0001c0 09 8c cb bd 4e 22 1e 40 cf 23 1b c0 34 73 9b bf
       -0.09938819 2.4708438 -2.4240606 -1.2144532
0001d0 93 9f 21 3f 08 1c a2 3f c1 94 2b 3d 64 a7 4f 3f
       0.63134116 1.2664804 0.04188991 0.8111479
0001e0 b5 1c c7 3e 46 e6 cd bf fb 49 6b bd ed 1c b1 3f
       0.3888909 -1.6085899 -0.0574436 1.3836952
0001f0 92 3a a5 3f 76 a2 d4 bd d6 26 83 3d 61 5e a3 bf
       1.2908499 -0.103825495 0.06403892 -1.2763177
000200 dd 82 14 3d ec f2 8d bf e7 ca 29 c0 21 1c da 3e
       0.036257613 -1.1089759 -2.6530092 0.42599586
000210 37 f0 d9 bf 4b 4f df 3f af 47 cf bd c5 d4 95 3f
       -1.7026433 1.7446073 -0.101210944 1.1705557
000220 6a c0 97 bf a1 b3 65 bc dc bb 1e 3d 3f 3a 0e 3f
       -1.1855595 -0.014019878 0.038753375 0.55557626
000230 71 de fe bf 3e 6b a1 bf 2b af a3 3d 19 d9 b6 3d
       -1.9911634 -1.2610853 0.07992395 0.08928127
000240 a1 cb 8d bd e4 7d 25 40 af 5c ea bf 20 88 45 bf
       -0.06923605 2.5858088 -1.8309535 -0.77160835
000250 73 a0 b9 bd 6f a6 80 be 6d de 43 bc 57 9b 16 3f
       -0.090638064 -0.2512698 -0.011954886 0.5883078
000260 b6 4f 00 bf 52 ba 05 bf 6e 85 2c bf 2b fb c5 bc
       -0.5012163 -0.5223743 -0.673911 -0.024167618
000270 ac 7c fe bc 0b f8 57 3f 9b f5 42 c0 21 04 f5 3e
       -0.031065308 0.8436286 -3.0462406 0.47854713
000280 33 11 d4 3f f4 b8 62 be d3 ff 68 bf 5c 56 b6 3e
       1.6567749 -0.22140867 -0.91015357 0.35612762
000290 ce 88 64 bc 4d 18 c9 3d 88 d3 fb 3c 3d 09 5f be
       -0.013948632 0.09819088 0.030740514 -0.21780868
0002a0 55 03 85 bf c7 a7 cf 3f d4 9c 37 3d 88 81 9f be
       -1.0391642 1.6223077 0.044827297 -0.31153512
0002b0 ac d8 92 bf ef 31 dd 3d 82 28 45 be 74 79 b9 3f
       -1.1472373 0.1080054 -0.19253734 1.449019
0002c0 99 4f 12 bc 42 89 c7 bf a5 3e e1 bf 1d bc 85 be
       -0.00893011 -1.5588763 -1.7597243 -0.26120082
0002d0 1d a8 82 c0 fe 06 ac bf 6f fd cb 3f 4f f1 0b 3e
       -4.0830216 -1.3439634 1.5936717 0.1366627
0002e0 a6 ea ca bf 86 6e 38 be 1e 43 7b bf 46 4e b8 3f
       -1.5852859 -0.18010911 -0.9814929 1.4398887
0002f0 c4 e7 bc bf ef 8b 89 bf 15 35 3f bc c5 45 9f bf
       -1.4758229 -1.0745829 -0.011670371 -1.2443167
000300 d1 4d fe bd ae ad 7f 3f 91 06 81 be 1b 7c 4a 3f
       -0.12417186 0.9987439 -0.25200322 0.7909562
000310 92 9a 95 3f b2 a1 94 3d 55 88 24 bf 16 8b e5 3b
       1.1687796 0.072574034 -0.64270526 0.0070051057
000320 6e ec 0f 3e 55 92 95 3d a7 0a 70 bf 69 44 63 bf
       0.14055035 0.07303301 -0.93766254 -0.8877626
000330 0a 5d 41 3b ea 03 3d 40 1f f9 b6 bf df a9 9d 3f
       0.0029504918 2.953364 -1.4294776 1.2317466
000340 c7 23 06 bc 64 c7 a7 3f 91 56 da bf 46 56 d7 bf
       -0.008187241 1.3107724 -1.7057668 -1.6823204
000350 70 27 f3 bc 33 8d 51 bf 77 b6 10 3f 91 51 0d 40
       -0.029681891 -0.8185608 0.5652842 2.2081034
000360 f9 33 07 bd 19 78 02 bf 9b 9d ea 3c 64 00 24 3f
       -0.03300855 -0.50964504 0.028639605 0.64063096
000370 51 43 06 c0 52 02 b4 bc f6 91 b0 ba 1e f5 49 c0
       -2.0978587 -0.021973763 -0.0013471234 -3.1555858
000380 0e 95 01 bf d8 01 72 bf 04 27 01 be 94 b8 c3 be
       -0.50618064 -0.94534063 -0.1261254 -0.3822676
000390 ae 5f 71 3e a1 db a1 3f 85 ce 8c 3e f2 bb 0c bd
       0.23571655 1.264515 0.27501312 -0.034358926
0003a0 0e 16 c1 bf 01 cd 47 be cc 84 4d bc 3e 54 88 3e
       -1.5084856 -0.19511797 -0.012543868 0.26626772
0003b0 a8 a7 da 3d cd 9d e6 bf 2e 72 c6 3e 0e be 5c 3e
       0.10676509 -1.8016907 0.38758987 0.21556875
0003c0 19 d5 ad bf d0 6b 31 3d 2d f2 b9 bd 8c 05 25 c0
       -1.3580657 0.04331571 -0.090793945 -2.5784636
0003d0 eb 00 13 c0 08 8b 84 bf 9f e5 90 bf a6 c1 47 bf
       -2.296931 -1.0354929 -1.1320075 -0.7802986
0003e0 e3 12 c0 bd c1 30 08 40 94 97 ad bf 21 5b 32 40
       -0.09378602 2.1279757 -1.3561883 2.786812
0003f0 20 ed 6a be 7d ab 19 3d 56 7c 92 bd 23 f8 1a be
       -0.22942019 0.03751706 -0.071526214 -0.15133719
