neptunel.tflite (tflite, 40048 bytes, 8 tensors)

model/dense/BiasAdd/ReadVariableOp/resource f4 [128]
0.29468614 -0.2304844 -0.39412078 -1.0976272 0.50071716 -0.7534928 -0.9697646 -0.44907823
-0.23654348 -1.1700215 0.95881605 -0.47428715 0.41766918 0.9914496 -0.15200041 0.0
-0.75602746 0.85722566 0.23427401 0.10235522 -0.39513958 -0.45697927 0.79727376 0.7986618
-0.060606074 -0.2493701 0.013740284 0.2134917 -0.047624405 -0.3416132 -0.93564725 0.17079844
-0.013943254 -0.27418205 -0.33473635 -0.50407773 0.7280531 0.08691169 -0.70774955 -0.08955884
-0.84603894 -0.031400934 0.7024414 0.08692793 -0.018213982 0.6886588 -0.34147325 -0.6575015
0.3815234 -0.74856204 0.18182494 -0.11897295 -0.40788823 -1.0584044 -0.71234655 -0.24808641
-0.37582678 0.071303055 0.31777704 -0.42123646 -0.2584057 -0.5387715 -0.12835953 0.30207515
-0.7081475 -0.7951418 -0.83939886 0.38380414 0.27344745 -0.66911066 -0.38820487 -1.0532317
-0.017895855 -0.80014175 -0.59227407 0.58783454 -0.39501533 -0.037719883 -1.2274816 0.94590795
0.073722824 -1.1596544 -0.017130082 -0.2876368 -0.2503912 -0.6132274 0.06452452 -0.3159925
-0.1912057 -0.8705105 0.49089944 -1.1587931 -0.25252056 -1.1959964 0.1253964 -0.4970055
-0.36295962 -1.1687766 0.759945 -0.9874677 -0.6152913 1.281341 -0.49095967 -0.8370715
0.46263766 -0.070470035 0.76747215 -0.2708377 0.3589281 0.6500187 -0.47488832 -0.44040886
0.33981997 -0.06862373 -1.2066708 -0.1560879 -0.43504328 -0.29643276 0.5525045 -0.7031119
-1.3050995 -0.6286726 -0.9414475 -0.9745752 0.40497375 -1.0973897 0.56579673 -0.29122704
00000000: 1ae1 963e 1a04 6cbe 33ca c9be 0c7f 8cbf
00000010: 002f 003f e7e4 40bf 7e42 78bf 95ed e5be
00000020: 7438 72be 44c3 95bf f874 753f c4d5 f2be
00000030: bcd8 d53e a4cf 7d3f ffa5 1bbe 0000 0000
00000040: 048b 41bf 2473 5b3f 87e5 6f3e 9d9f d13d
00000050: bc4f cabe 30f9 e9be 221a 4c3f 1a75 4c3f
00000060: 133e 78bd e05a 7fbe ee1e 613c 919d 5a3e
00000070: cf11 43bd ede7 aebe 9486 6fbf c9e5 2e3e
00000080: 3f72 64bc 9761 8cbe 9062 abbe 3d0b 01bf
00000090: b061 3a3f c2fe b13d 132f 35bf a06a b7bd
000000a0: 0296 58bf 449e 00bd 33d3 333f 4507 b23d
000000b0: 7d35 95bc f14b 303f 95d5 aebe 0552 28bf
000000c0: 0957 c33e c3a1 3fbf 5130 3a3e 17a8 f3bd
000000d0: bad6 d0be cc79 87bf 585c 36bf 5d0a 7ebe
000000e0: 5e6c c0be 5607 923d acb3 a23e 4eac d7be
000000f0: c04d 84be eeec 09bf ae70 03be 98a9 9a3e
00000100: 2849 35bf 6a8e 4bbf d8e2 56bf fa81 c43e
00000110: 4e01 8c3e d64a 2bbf cac2 c6be 4cd0 86bf
00000120: 549a 92bc 17d6 4cbf 469f 17bf 537c 163f
00000130: 733f cabe 2a80 1abd 1e1e 9dbf 0627 723f
00000140: fefb 963d 8e6f 94bf 6354 8cbc 2145 93be
00000150: 4633 80be 79fc 1cbf 6e25 843d c5c9 a1be
00000160: 6dcb 43be c7d9 5ebf 2c57 fb3e 5553 94bf
00000170: 604a 81be 6916 99bf ea67 003e 8177 febe
00000180: d8d5 b9be 799a 95bf c18b 423f afca 7cbf
00000190: bb83 1dbf fb02 a43f 115f fbbe 514a 56bf
000001a0: d8de ec3e 9852 90bd 0e79 443f 3dab 8abe
000001b0: 6dc5 b73e a067 263f 9024 f3be 457d e1be
000001c0: e2fc ad3e 998a 8cbd 3074 9abf 82d5 1fbe
000001d0: febd debe 09c6 97be ef70 0d3f 24ff 33bf
000001e0: 800d a7bf b0f0 20bf b402 71bf c37d 79bf
000001f0: b858 cf3e 4477 8cbf 0ed8 103f b61b 95be

model/dense_1/BiasAdd/ReadVariableOp/resource f4 [256]
0.2578722 -0.017561063 0.18984877 -0.72764266 -0.0004350907 0.23901746 0.038854115 -0.9485432
0.23991224 0.06810285 -0.14374265 0.08529157 -0.63059825 0.26229355 0.2186225 -1.4976115
-0.17384088 0.090892166 -0.4602967 -0.55419695 -1.1859072 -0.15174088 0.10891893 0.43570682
0.04995612 -0.12839976 0.2585826 0.28343004 -0.19750604 -1.8744401 -0.20754324 0.027979499
0.11997117 -1.0081977 0.09914328 0.33985856 -0.6583593 -0.9782984 -0.34178743 -0.03797696
-0.4870988 -0.15735765 0.2367287 -0.29839894 0.50534403 -0.013761756 -1.7378321 0.639485
0.24748461 -1.2089363 0.046205062 -0.6465732 -0.013146269 -1.0461632 -0.40034577 -2.3276267
0.23113342 -1.2055172 -0.54236573 -0.39122215 0.11274924 0.20803468 0.25117332 0.23807585
-0.21913521 0.066900924 -0.03741562 0.2056133 0.084634125 -0.44953614 0.05430511 -0.24483171
0.124671176 0.13481961 0.36611128 0.23153491 -0.014778747 -0.21647774 0.060624722 0.008086267
0.044782892 -1.411709 -1.6062076 -0.13217287 0.4676207 0.17230581 0.18706748 0.14492837
0.2871658 -0.35289663 -1.1599541 -0.15056595 0.02413925 -0.11676247 -1.8017008 -0.44245234
0.26103088 0.2982899 -0.049425587 -0.056575835 0.3353663 0.6852907 0.3333756 0.16322406
0.14955847 -0.6373621 0.23947883 0.19542448 0.23756336 -0.7919946 0.3724021 -0.11510607
0.010583732 -1.7237185 0.16376154 -0.8414624 -1.7419986 -1.3868346 -0.19017263 -1.2559566
-0.200339 0.08778987 -0.24052656 -0.61132616 -1.4835095 -0.0041693673 -0.16134231 -0.13170795
-0.2048783 -1.5636523 -0.9148797 0.116876334 0.31974337 0.04051567 -0.90184385 0.38777962
0.12888151 0.35852626 0.24474037 -1.715074 -0.32050222 -0.5029655 0.14670834 0.03595924
0.07081108 0.20311223 -0.39513296 -1.1506664 0.106010266 -0.0010132852 0.011089158 -0.22883886
0.29096648 -0.13336885 0.5742061 -0.5544795 -1.5649248 0.20488423 0.11662955 -1.9677681
0.2708422 -0.14305688 -0.6806638 -1.0594624 -0.33436438 0.29853508 -0.5529591 -0.5903347
-1.0131431 0.32585877 0.04835441 -0.24122998 0.3542654 -2.1058128 -1.8577812 -0.6675069
-0.060363498 0.6728568 0.2923966 0.12883411 -0.31540865 -0.24808542 -0.648399 -0.27839136
-1.6828856 -0.64040846 0.03578975 0.36258364 -1.170403 0.57432497 -0.13629885 0.25223467
0.24884719 0.21094233 0.5633962 0.31294888 0.18732212 -0.43527547 0.29966322 -0.70873755
-1.3237175 0.34122 0.2445432 0.6144109 0.12387066 -1.4093219 -0.49037126 -0.001954156
-0.33224714 -0.8981737 -0.8051109 -0.27984104 -1.1135222 -0.9935821 -1.0137956 -0.014361815
0.24899426 -1.097004 -1.4077708 -0.07272765 -0.7238131 0.32604182 -0.59100544 -0.113966554
-0.09288774 -0.82064646 0.07298625 0.051773585 -0.077257246 -0.024712365 -0.04891864 -2.86272
0.033070404 -1.3786477 0.00887748 0.31777978 -0.02008465 -0.098584525 -1.1267009 -0.78315014
-0.37012935 0.35744426 -0.095254995 -2.2224882 -0.6369762 0.14229181 0.37269458 -0.7233666
-1.0594138 -0.89345664 -0.44835898 -0.05695213 -1.222928 0.3834801 0.032552358 -0.16393061
00000000: d307 843e 38dc 8fbc b767 423e ca46 3abf
00000010: e31c e4b9 fec0 743e 7e25 1f3d bad3 72bf
00000020: 8eab 753e 8279 8b3d 4631 13be 59ad ae3d
00000030: e36e 21bf 574b 863e 94de 5f3e bcb1 bfbf
00000040: 5803 32be ac25 ba3d 02ac ebbe dadf 0dbf
00000050: cfcb 97bf f661 1bbe e310 df3d f714 df3e
00000060: ca9e 4c3d 3a7b 03be f064 843e be1d 913e
00000070: 063f 4abe a7ed efbf 3786 54be 4335 e53c
00000080: 72b3 f53d 9f0c 81bf a20b cb3d f101 ae3e
00000090: 3c8a 28bf c471 7abf c3fe aebe bb8d 1bbd
000000a0: 0465 f9be 5d22 21be 0269 723e bfc7 98be
000000b0: 3a5e 013f fd78 61bc 4871 debf 4ab5 233f
000000c0: 9b6c 7d3e 6dbe 9abf 8541 3d3d d285 25bf
000000d0: 7363 57bc ade8 85bf 1ffa ccbe d6f7 14c0
000000e0: 3dae 6c3e 634e 9abf 7bd8 0abf 454e c8be
000000f0: 13e9 e63d 0b07 553e ca99 803e 28ca 733e
00000100: fb64 60be 5a03 893d 1f41 19bd 4b8c 523e
00000110: a854 ad3d 9a29 e6be 096f 5e3d 2ab5 7abe
00000120: 9a53 ff3d 270e 0a3e f072 bb3e 7d17 6d3e
00000130: 8f22 72bc 57ac 5dbe a151 783d 437c 043c
00000140: 446e 373d e1b2 b4bf 3698 cdbf 5358 07be
00000150: fb6b ef3e ef70 303e 9e8e 3f3e 1a68 143e
00000160: 6507 933e deae b4be 6079 94bf f62d 1abe
00000170: adbf c53c 2921 efbd 229e e6bf 1d89 e2be
00000180: d7a5 853e 74b9 983e 7c72 4abd 10bc 67bd
00000190: 22b5 ab3e 366f 2f3f 35b0 aa3e 3524 273e
000001a0: db25 193e 2a2a 23bf f039 753e 5b1d 483e
000001b0: cf43 733e 28c0 4abf 7dab be3e bbbc ebbd
000001c0: 6467 2d3c cfa2 dcbf 1bb1 273e 146a 57bf
000001d0: cff9 debf cc83 b1bf 9dbc 42be 30c3 a0bf
000001e0: ab25 4dbe 2dcb b33d 984c 76be df7f 1cbf
000001f0: a4e3 bdbf 309f 88bb eb36 25be 73de 06be
00000200: 9ecb 51be c225 c8bf 8e35 6abf dc5c ef3d
00000210: 67b5 a33e c2f3 253d 3ddf 66bf 0d8b c63e
00000220: 84f9 033e c190 b73e 389d 7a3e 8b87 dbbf
00000230: de18 a4be 59c2 00bf b63a 163e ff49 133d
00000240: 6605 913d a7fc 4f3e de4e cabe 0949 93bf
00000250: e91b d93d 36d0 84ba 4daf 353c bc54 6abe
00000260: 8ff9 943e d891 08be 2cff 123f 5ef2 0dbf
00000270: 754f c8bf 2ccd 513e 79db ee3d d3df fbbf
00000280: d4ab 8a3e 817d 12be fc3f 2ebf 779c 87bf
00000290: cf31 abbe 97d9 983e ba8e 0dbf 2d20 17bf
000002a0: acae 81bf f6d6 a63e 460f 463d fe04 77be
000002b0: 4662 b53e a3c5 06c0 c6cb edbf bbe1 2abf
000002c0: b73f 77bd 5840 2c3f 02b5 953e 17ed 033e
000002d0: 3e7d a1be 1b0a 7ebe 7afd 25bf 5089 8ebe
000002e0: cc68 d7bf cff1 23bf 4698 123d 90a4 b93e
000002f0: c4cf 95bf f606 133f ed91 0bbe e724 813e
00000300: ccd1 7e3e 4401 583e bc3a 103f d63a a03e
00000310: 5fd1 3f3e 6ddc debe 756d 993e d36f 35bf
00000320: 936f a9bf 63b4 ae3e 8869 7a3e 084a 1d3f
00000330: e7af fd3d a964 b4bf f111 fbbe 4c11 00bb
00000340: 4c1c aabe b6ee 65bf bf1b 4ebf 5347 8fbe
00000350: e587 8ebf 665b 7ebf 0ec4 81bf d14d 6bbc
00000360: 5af8 7e3e a16a 8cbf d531 b4bf 3cf2 94bd
00000370: d14b 39bf f4ee a63e 224c 17bf 4c67 e9bd
00000380: ed3b bebd e315 52bf d179 953d 8a10 543d
00000390: 0c39 9ebd 9671 cabc e95e 48bd ce36 37c0
000003a0: d574 073d 8777 b0bf da72 113c 08b4 a23e
000003b0: 9088 a4bc afe6 c9bd bc37 90bf 877c 48bf
000003c0: 9881 bdbe ef02 b73e 0d15 c3bd 3f3d 0ec0
000003d0: df10 23bf f2b4 113e d3d1 be3e 8e2e 39bf
000003e0: df9a 87bf 93b9 64bf 4f8f e5be a346 69bd
000003f0: e888 9cbf 8157 c43e 9f55 053d 6ddd 27be

model/dense_2/BiasAdd/ReadVariableOp/resource f4 [64]
-0.04465006 0.0 1.2028501 -0.11215978 0.0 -0.008296765 0.0 4.0551524
-0.5128963 0.0 0.0 1.2579032 0.0 -0.02075239 -0.013566564 -0.37393963
2.4121552 -0.30998495 -0.060916197 1.8610773 0.0 1.7954366 -5.4337177 0.0
0.0 -0.37451345 0.0 -0.0020709408 -0.609916 -0.30117002 -0.54550916 0.0
-0.10438177 -0.12807328 0.0 0.0 0.0 2.1237502 0.0 3.1016233
4.5153146 -0.00018691675 0.0 -0.9047998 -0.29376543 0.0 2.3466585 2.1023896
0.79430866 0.0 -0.119121864 -0.15231274 0.0 -0.6320556 -0.011373866 0.0
0.0 -0.012614663 0.0 -1.2622528 1.3101649 -0.3263146 0.0 -0.6033616
00000000: fbe2 36bd 0000 0000 fef6 993f 07b4 e5bd
00000010: 0000 0000 28ef 07bc 0000 0000 cfc3 8140
00000020: 2c4d 03bf 0000 0000 0000 0000 f902 a13f
00000030: 0000 0000 eb00 aabc 4b46 5ebc 0475 bfbe
00000040: c060 1a40 59b6 9ebe 4383 79bd c837 ee3f
00000050: 0000 0000 ded0 e53f 04e1 adc0 0000 0000
00000060: 0000 0000 3ac0 bfbe 0000 0000 9fb8 07bb
00000070: 7423 1cbf f532 9abe 7da6 0bbf 0000 0000
00000080: 1cc6 d5bd a425 03be 0000 0000 0000 0000
00000090: 0000 0000 86eb 0740 0000 0000 ff80 4640
000000a0: 757d 9040 15ff 43b9 0000 0000 f6a0 67bf
000000b0: 6c68 96be 0000 0000 a72f 1640 8d8d 0640
000000c0: d057 4b3f 0000 0000 2af6 f3bd dff7 1bbe
000000d0: 0000 0000 65ce 21bf 7459 3abc 0000 0000
000000e0: 0000 0000 bbad 4ebc 0000 0000 8091 a1bf
000000f0: 7cb3 a73f b512 a7be 0000 0000 e875 1abf

model/keys/BiasAdd/ReadVariableOp/resource f4 [4]
-0.27563968 -2.3020651 -3.068448 4.0680428
00000000: a520 8dbe 0955 13c0 7461 44c0 682d 8240

model/dense/MatMul i1 [128, 10] scale=0.116578154 zero_point=0
-0.23315631 0.0 -1.1657815 1.515516 0.46631262 -0.8160471 -0.34973446 0.23315631
0.0 -1.1657815 -1.0492034 -0.58289075 0.34973446 1.1657815 0.93262523 -0.6994689
-0.23315631 -0.116578154 -0.23315631 -1.3989378 -0.23315631 -0.8160471 1.0492034 0.93262523
0.46631262 -0.93262523 -0.23315631 0.116578154 -0.8160471 0.34973446 1.0492034 0.116578154
0.116578154 -0.116578154 -0.58289075 -0.23315631 0.116578154 0.116578154 1.3989378 1.0492034
1.0492034 -0.93262523 -0.93262523 0.34973446 0.23315631 0.0 -0.116578154 -0.93262523
-0.23315631 -3.031032 0.46631262 -1.3989378 0.0 0.93262523 1.1657815 -0.58289075
-0.116578154 0.0 0.116578154 -0.34973446 0.58289075 0.6994689 0.0 -0.58289075
-0.46631262 0.46631262 1.1657815 -0.23315631 0.23315631 -0.93262523 1.515516 1.1657815
-0.46631262 -0.23315631 -0.23315631 -0.116578154 -0.46631262 -1.1657815 1.2823597 0.0
-0.6994689 -0.93262523 0.116578154 -0.46631262 0.116578154 0.8160471 1.1657815 0.23315631
-1.1657815 -0.93262523 0.0 1.3989378 1.0492034 -0.46631262 0.0 -0.6994689
0.46631262 0.116578154 -0.6994689 0.0 0.116578154 0.34973446 -0.93262523 0.6994689
-0.93262523 -0.58289075 0.34973446 -0.116578154 0.34973446 -1.2823597 0.116578154 0.23315631
-1.8652505 0.6994689 0.93262523 0.23315631 -0.23315631 0.116578154 0.116578154 -0.46631262
-0.116578154 0.46631262 1.1657815 -0.34973446 -1.0492034 -0.46631262 0.0 0.0
0.23315631 -0.34973446 -0.23315631 0.8160471 -0.93262523 0.23315631 -0.116578154 -1.0492034
0.23315631 0.0 -0.116578154 -1.7486724 -0.23315631 0.46631262 0.6994689 -1.3989378
0.46631262 0.58289075 -0.23315631 0.34973446 -0.34973446 -14.805426 -0.116578154 -0.116578154
0.0 -0.116578154 -0.116578154 -0.116578154 0.116578154 -0.23315631 -0.116578154 -0.116578154
-0.116578154 0.34973446 -1.2823597 1.0492034 1.0492034 -0.116578154 -0.34973446 0.0
0.23315631 -0.34973446 -3.031032 -0.58289075 -1.515516 0.34973446 0.34973446 -0.46631262
0.23315631 0.46631262 -0.34973446 -1.7486724 -0.93262523 -0.6994689 0.8160471 1.2823597
0.0 -0.93262523 -0.6994689 -0.23315631 -0.23315631 0.58289075 -0.58289075 0.0
0.46631262 -0.34973446 -0.23315631 0.116578154 0.93262523 0.0 -3.6139228 1.3989378
-0.46631262 -0.23315631 -0.116578154 0.0 -0.58289075 0.34973446 1.6320941 0.23315631
-1.1657815 -0.23315631 0.0 -0.34973446 0.34973446 -0.34973446 0.23315631 -0.116578154
0.0 1.515516 0.46631262 -2.6812975 0.46631262 -0.93262523 -1.1657815 0.8160471
-0.116578154 -0.34973446 -0.34973446 -0.6994689 0.0 -4.1968136 -1.6320941 -1.515516
0.34973446 1.0492034 0.23315631 -0.23315631 -0.46631262 -1.2823597 0.116578154 -2.4481413
-0.23315631 0.0 -0.116578154 -0.116578154 0.0 0.116578154 -0.116578154 0.0
0.0 0.116578154 0.116578154 -0.23315631 -1.3989378 0.23315631 0.0 0.93262523
00000000: fe00 f60d 04f9 fd02 00f6 f7fb 030a 08fa
00000010: feff fef4 fef9 0908 04f8 fe01 f903 0901
00000020: 01ff fbfe 0101 0c09 09f8 f803 0200 fff8
00000030: fee6 04f4 0008 0afb ff00 01fd 0506 00fb
00000040: fc04 0afe 02f8 0d0a fcfe feff fcf6 0b00
00000050: faf8 01fc 0107 0a02 f6f8 000c 09fc 00fa
00000060: 0401 fa00 0103 f806 f8fb 03ff 03f5 0102
00000070: f006 0802 fe01 01fc ff04 0afd f7fc 0000
00000080: 02fd fe07 f802 fff7 0200 fff1 fe04 06f4
00000090: 0405 fe03 fd81 ffff 00ff ffff 01fe ffff
000000a0: ff03 f509 09ff fd00 02fd e6fb f303 03fc
000000b0: 0204 fdf1 f8fa 070b 00f8 fafe fe05 fb00
000000c0: 04fd fe01 0800 e10c fcfe ff00 fb03 0e02
000000d0: f6fe 00fd 03fd 02ff 000d 04e9 04f8 f607
000000e0: fffd fdfa 00dc f2f3 0309 02fe fcf5 01eb
000000f0: fe00 ffff 0001 ff00 0001 01fe f402 0008

model/dense_1/MatMul i1 [256, 128] scale=0.0648314 zero_point=0
0.0648314 0.0648314 0.0 0.19449419 -0.45381978 -0.324157 0.8428082 0.324157
-2.8525815 -0.0648314 0.45381978 -0.2593256 0.1296628 0.2593256 0.38898838 0.0
-0.648314 -0.648314 0.648314 -0.77797675 -1.296628 0.90763956 -0.45381978 -1.1669651
0.1296628 -1.7504478 -1.8801105 -2.9822443 0.1296628 -2.3987617 0.1296628 -0.1296628
-0.77797675 0.8428082 0.90763956 0.1296628 -2.1394362 1.7504478 -0.648314 -0.90763956
1.620785 0.0 -0.8428082 -1.620785 0.38898838 0.19449419 -0.8428082 -1.3614594
0.1296628 0.2593256 -1.0373024 0.2593256 -4.1492095 -0.1296628 -0.324157 -0.5186512
1.5559535 0.58348256 -0.324157 -0.19449419 -1.1669651 -0.0648314 -0.648314 -1.4262908
-0.0648314 0.0 0.0 -0.8428082 -0.45381978 1.3614594 -1.8152791 0.2593256
0.0648314 -0.2593256 -0.7131454 -1.4911221 -0.324157 0.648314 0.0648314 1.7504478
-1.944942 0.0648314 -0.0648314 -1.3614594 0.0648314 -0.2593256 1.8801105 -0.77797675
0.2593256 0.0 0.2593256 0.2593256 -2.9822443 0.2593256 -2.269099 -0.58348256
0.90763956 0.5186512 -2.0097733 0.648314 0.0648314 -2.6580873 -2.593256 -0.2593256
1.3614594 -0.1296628 0.8428082 0.77797675 0.2593256 -1.296628 -0.7131454 -0.19449419
-1.6856164 0.19449419 0.324157 0.0648314 -0.324157 0.8428082 -2.593256 -0.324157
0.0 -0.8428082 0.2593256 0.45381978 -0.19449419 0.2593256 -1.4262908 -0.1296628
0.2593256 -0.324157 0.324157 -0.38898838 -1.944942 -0.972471 0.0 0.2593256
0.0648314 -0.58348256 0.0 -1.4262908 0.58348256 0.90763956 0.19449419 -0.0648314
-1.2317966 -1.1669651 -0.58348256 -2.7877502 0.1296628 -0.324157 -2.269099 -1.620785
0.0 -1.4262908 0.0 0.0 -0.1296628 0.0648314 -1.4911221 -0.0648314
-0.7131454 0.324157 0.648314 0.19449419 -1.6856164 -2.3987617 -2.3987617 0.1296628
0.19449419 0.0648314 0.58348256 -0.1296628 -0.19449419 1.4911221 0.0648314 -0.8428082
0.58348256 0.19449419 -2.1394362 -0.38898838 -0.648314 -0.0648314 0.19449419 -0.8428082
-0.8428082 0.19449419 -1.1669651 0.0 -1.5559535 0.0 -1.3614594 -2.5284245
0.0 -0.58348256 -0.1296628 -0.1296628 0.1296628 0.90763956 -0.1296628 0.8428082
0.0 -0.45381978 0.45381978 0.0 0.2593256 -0.45381978 -0.0648314 -0.324157
-0.324157 -0.19449419 0.1296628 0.1296628 0.5186512 0.19449419 -0.7131454 0.0
-1.7504478 0.1296628 2.1394362 -0.2593256 0.0648314 0.0648314 -0.2593256 -0.90763956
-2.593256 -3.5008955 -0.90763956 0.0 0.0648314 -0.2593256 -0.972471 -2.269099
1.0373024 0.0 0.8428082 -0.19449419 0.77797675 -1.944942 0.5186512 0.8428082
0.1296628 -2.0097733 -0.324157 0.38898838 0.38898838 -0.38898838 0.1296628 -3.436064
-1.8152791 0.324157 -0.324157 -2.0097733 0.45381978 -0.38898838 0.0 -0.2593256
00000000: 0101 0003 f9fb 0d05 d4ff 07fc 0204 0600
00000010: f6f6 0af4 ec0e f9ee 02e5 e3d2 02db 02fe
00000020: f40d 0e02 df1b f6f2 1900 f3e7 0603 f3eb
00000030: 0204 f004 c0fe fbf8 1809 fbfd eeff f6ea
00000040: ff00 00f3 f915 e404 01fc f5e9 fb0a 011b
00000050: e201 ffeb 01fc 1df4 0400 0404 d204 ddf7
00000060: 0e08 e10a 01d7 d8fc 15fe 0d0c 04ec f5fd
00000070: e603 0501 fb0d d8fb 00f3 0407 fd04 eafe
00000080: 04fb 05fa e2f1 0004 01f7 00ea 090e 03ff
00000090: edee f7d5 02fb dde7 00ea 0000 fe01 e9ff
000000a0: f505 0a03 e6db db02 0301 09fe fd17 01f3
000000b0: 0903 dffa f6ff 03f3 f303 ee00 e800 ebd9
000000c0: 00f7 fefe 020e fe0d 00f9 0700 04f9 fffb
000000d0: fbfd 0202 0803 f500 e502 21fc 0101 fcf2
000000e0: d8ca f200 01fc f1dd 1000 0dfd 0ce2 080d
000000f0: 02e1 fb06 06fa 02cb e405 fbe1 07fa 00fc

model/dense_2/MatMul f4 [64, 1]
-4.933329e-06 -0.054642677 -0.10082391 -0.005143162 -0.15644038 -0.0016075603 -0.2775808 -0.32626906
0.0017336875 -0.05034414 -0.29824236 -0.10948093 -0.24823093 -0.0011519952 -0.0030615851 0.0008775443
-0.19132246 -2.8238699e-05 -0.00021635254 -0.050129835 -0.0708538 -1.2928283 0.14223024 -0.1373438
-0.11775899 0.0005931441 -0.28184775 -0.00023496682 0.0020343089 -0.00022473576 0.0016668072 -0.11398794
-0.00018119987 -0.0023106092 -0.08133048 -0.24617554 -0.2296932 -0.050346237 -0.2041013 -0.068043664
-0.08876826 -0.0060748276 -0.10431032 0.0012590815 0.00015372888 -0.124703586 -0.254443 -0.051998906
-0.7075874 -0.08224861 -0.00016507076 -0.0015069717 -0.12405288 0.0016414693 -0.0072615584 -0.03511083
-0.26919305 -0.0069211833 -0.14545953 0.003676142 -0.050852157 -0.001176062 -0.25189197 0.0016011469
00000000: f988 a5b6 00d1 5fbd c47c cebd f887 a8bb
00000010: e831 20be c6b4 d2ba 121f 8ebe bd0c a7be
00000020: e63c e33a a835 4ebd 39b3 98be 8a37 e0bd
00000030: 4030 7ebe 8bfe 96ba e0a4 48bb 000b 663a
00000040: 09ea 43be 25e2 ecb7 b1dc 62b9 f154 4dbd
00000050: cc1b 91bd 667b a5bf cea4 113e daa3 0cbe
00000060: a02b f1bd 3a7d 1b3a 594e 90be 6d61 76b9
00000070: 0a52 053b 0ca7 6bb9 c578 da3a 8272 e9bd
00000080: 7800 3eb9 976d 17bb 9890 a6bd 7115 7cbe
00000090: b234 6bbe db37 4ebd eeff 50be 7a5a 8bbd
000000a0: 22cc b5bd 590f c7bb a6a0 d5bd c407 a53a
000000b0: 4832 2139 9864 ffbd 5a46 82be cefc 54bd
000000c0: 7324 35bf f671 a8bd d816 2db9 9485 c5ba
000000d0: 700f febd 9226 d73a 5ef2 edbb 60d0 0fbd
000000e0: acd3 89be 18cb e2bb 58f3 14be 6eeb 703b
000000f0: 5a4a 50bd 1826 9aba fcf7 80be 93dd d13a

model/keys/MatMul i1 [4, 320] scale=0.06863925 zero_point=0
0.0 0.0 -0.34319624 0.0 0.06863925 0.06863925 0.06863925 -1.647342
0.0 0.06863925 0.1372785 -0.4118355 0.06863925 0.0 0.06863925 0.0
-0.1372785 0.0 0.0 -1.372785 -0.1372785 -0.06863925 0.06863925 0.1372785
-0.06863925 0.0 -0.06863925 0.0 0.0 0.0 0.0 0.0
0.0 0.0 -0.06863925 0.0 0.0 -2.1278167 0.06863925 -4.2556334
-2.1278167 0.0 0.1372785 0.0 0.0 0.0 -0.06863925 -1.372785
-0.06863925 0.1372785 0.06863925 0.0 0.1372785 0.0 0.0 0.0
0.0 0.0 0.1372785 0.0 -0.549114 0.0 0.0 0.0
-0.549114 -0.89231026 -0.274557 1.5787027 -2.6082914 1.098228 1.7159812 0.274557
-0.7550317 -1.4414243 -0.06863925 -0.20591775 0.4118355 -0.89231026 -1.8532597 0.0
-0.20591775 -2.0591774 -0.1372785 0.89231026 2.2650952 -0.34319624 0.1372785 0.0
-0.549114 0.06863925 -0.1372785 -0.48047474 -0.9609495 -1.9905382 0.48047474 -1.1668673
-1.0295887 2.4023738 2.8142092 0.0 1.098228 -0.61775327 0.7550317 1.647342
-0.1372785 0.0 -0.7550317 -0.823671 -0.1372785 -1.2355065 0.48047474 0.06863925
-0.06863925 2.471013 -2.4023738 -1.2355065 0.61775327 1.2355065 0.06863925 0.823671
0.4118355 -1.5787027 -0.06863925 1.372785 1.3041457 -0.1372785 0.06863925 -1.3041457
0.06863925 -1.098228 -2.6769307 0.4118355 -1.7159812 1.7159812 -0.06863925 1.1668673
-1.1668673 0.0 0.06863925 0.549114 -1.9905382 -1.2355065 0.06863925 0.06863925
-0.06863925 2.6082914 -1.8532597 -0.7550317 -0.06863925 -0.274557 0.0 0.61775327
-0.48047474 -0.549114 -0.6863925 0.0 0.0 0.823671 -3.0201268 0.48047474
1.647342 -0.20591775 -0.89231026 0.34319624 0.0 0.06863925 0.0 -0.20591775
-1.0295887 1.647342 0.06863925 -0.34319624 -1.1668673 0.1372785 -0.20591775 1.4414243
0.0 -1.5787027 -1.7846205 -0.274557 -4.0497155 -1.372785 1.5787027 0.1372785
-1.5787027 -0.20591775 -0.9609495 1.4414243 -1.5100634 -1.098228 0.0 -1.2355065
-0.1372785 1.0295887 -0.274557 0.823671 1.1668673 0.06863925 -0.61775327 0.0
0.1372785 0.06863925 -0.9609495 -0.89231026 0.0 2.9514878 -1.4414243 1.2355065
0.0 1.3041457 -1.7159812 -1.7159812 0.0 -0.823671 0.549114 2.196456
0.0 -0.48047474 0.0 0.61775327 -2.1278167 0.0 0.0 -3.1574054
-0.48047474 -0.9609495 -0.1372785 -0.4118355 0.20591775 1.2355065 0.274557 -0.06863925
-1.5100634 -0.20591775 0.0 0.274557 0.1372785 -1.7846205 0.4118355 0.20591775
-1.372785 0.06863925 -0.06863925 -2.6082914 -2.2650952 -1.0295887 -1.098228 -0.7550317
-0.06863925 2.1278167 -1.372785 2.8142092 -0.20591775 0.06863925 -0.06863925 -0.1372785
00000000: 0000 fb00 0101 01e8 0001 02fa 0100 0100
00000010: fe00 00ec feff 0102 ff00 ff00 0000 0000
00000020: 0000 ff00 00e1 01c2 e100 0200 0000 ffec
00000030: ff02 0100 0200 0000 0000 0200 f800 0000
00000040: f8f3 fc17 da10 1904 f5eb fffd 06f3 e500
00000050: fde2 fe0d 21fb 0200 f801 fef9 f2e3 07ef
00000060: f123 2900 10f7 0b18 fe00 f5f4 feee 0701
00000070: ff24 ddee 0912 010c 06e9 ff14 13fe 01ed
00000080: 01f0 d906 e719 ff11 ef00 0108 e3ee 0101
00000090: ff26 e5f5 fffc 0009 f9f8 f600 000c d407
000000a0: 18fd f305 0001 00fd f118 01fb ef02 fd15
000000b0: 00e9 e6fc c5ec 1702 e9fd f215 eaf0 00ee
000000c0: fe0f fc0c 1101 f700 0201 f2f3 002b eb12
000000d0: 0013 e7e7 00f4 0820 00f9 0009 e100 00d2
000000e0: f9f2 fefa 0312 04ff eafd 0004 02e6 0603
000000f0: ec01 ffda dff1 f0f5 ff1f ec29 fd01 fffe
